…
(3, 3), strides=(2, 2), padding=\"same\"),\n        layers.LeakyReLU(alpha=0.2),\n        layers.Conv2D(128, (3, 3), strides=(2, 2), padding=\"same\"),\n        layers.LeakyReLU(alpha=0.2),\n        layers.GlobalMaxPooling2D(),\n        layers.Dense(1),\n    ],\n    name=\"discriminator\",\n)\ndiscriminator.summary()\n</code></pre><pre><code>Model: \"discriminator\"\n_________________________________________________________________\n Layer (type)                Output Shape              Param #   \n=================================================================\n conv2d (Conv2D)             (None, 14, 14, 64)        640       \n\n leaky_re_lu (LeakyReLU)     (None, 14, 14, 64)        0         \n\n conv2d_1 (Conv2D)           (None, 7, 7, 128)         73856     \n\n leaky_re_lu_1 (LeakyReLU)   (None, 7, 7, 128)         0         \n\n global_max_pooling2d (Glob  (None, 128)               0         \n alMaxPooling2D)                                                 \n\n dense_4 (Dense)             (None, 1)                 129       \n\n=================================================================\nTotal params: 74625 (291.50 KB)\nTrainable params: 74625 (291.50 KB)\nNon-trainable params: 0 (0.00 Byte)\n_________________________________________________________________\n</code></pre><p>Then let's create a generator network, that turns latent vectors into outputs of shape&nbsp;&nbsp;(representing MNIST digits):</p><p
…
